models/simple_best_model.pth (torch_old, 37951 bytes, 22 tensors)

0.0.weight f4 [8, 1, 3, 3]
00000000: 49f8 57be 9b15 9a3e fa7e a2be a134 c03b
00000010: ce4c 38ba 4355 a9be 9486 533e bda0 163e
00000020: c847 953e 5d6c 43be 82e0 6f3e aa96 8d3e
00000030: ce3b 5b3e 8003 85be a8fd 21bc 2a86 3e3e
00000040: bd3a ce3d 36ed fb3d 1bf0 a0be 3e14 1c3e
00000050: 3ba7 25be 04d7 80be d392 833e ce5a 2cbe
00000060: 9f45 2b3e 9c75 02be 9b06 01be 71cf 2e3e
00000070: 207a a5be 488c b3bd 216d b0bd 6e89 3bbe
00000080: fe12 013e 425b 5dbe 195a 273d bf52 ffbd
00000090: 44bd efbd 739d fcbd fdac 083d e23c 663d
000000a0: 77d0 89be af25 943e 1b1b 033e 18e9 5fbd
000000b0: 71dd 08be c518 8c3d d100 693e 541c 353e
000000c0: 1991 4dbd 4792 043d 7e8f 933e 15f6 803e
000000d0: 6bb0 dabd 4dee a03d 5cba 8d3e 24b5 833c
000000e0: e1e5 8f3e 83fb 833e 4b68 6bbe 02d5 e83d
000000f0: 6263 19bd e997 87be f9b5 a6be 862f 4a3d
00000100: b1a7 9a3e f336 52be c47a 2abe f3ea aabe
00000110: 1649 35bd 4b38 6abe 7341 4cbd 19fe 2c3e
-0.21090807 0.3009461 -0.317375 0.005865649 -0.0007030488 -0.33072862 0.20656806 0.14709754
0.29156327 -0.19084306 0.23425487 0.2765401 0.21409532 -0.25979233 -0.0098871365 0.18605867
0.10069797 0.12301104 -0.31433186 0.15242097 -0.16177075 -0.25164044 0.25697955 -0.16831514
0.16725777 -0.12740177 -0.12600176 0.1707132 -0.32319736 -0.08766991 -0.08614565 -0.18314144
0.12604901 -0.21616843 0.04085741 -0.124669544 -0.117060214 -0.123347186 0.0333681 0.056210406
-0.2691686 0.28935 0.12803309 -0.054665655 -0.13365723 0.06840662 0.22754218 0.17686588
-0.050187204 0.032366063 0.28820413 0.25187746 -0.1067818 0.07857952 0.27681243 0.016077586
0.2810507 0.25777826 -0.22989003 0.11368753 -0.037448294 -0.26483086 -0.3256071 0.049361728
0.30206063 -0.20528774 -0.16648394 -0.33382377 -0.044259153 -0.22873037 -0.049867105 0.16893806

0.1.weight f4 [8]
00000000: 9f44 7d3f de86 803f 001e 813f a3e5 803f
00000010: 13af 803f ebea 7f3f c2bd 7d3f 526c 803f
0.9893283 1.0041158 1.008728 1.007008 1.0053428 0.9996783 0.9911767 1.0033057

0.1.bias f4 [8]
00000000: bd6a 3a3b 018e e63b 4db7 e53b f383 bd3b
00000010: 8f53 163c 2eb4 2c38 5259 b7bb d90a d63a
0.0028444969 0.007035971 0.0070103765 0.005783552 0.009175195 4.11758e-05 -0.0055953646 0.0016330137

0.1.running_mean f4 [8]
00000000: 4824 6bbb 805e adbc aa19 913c b3ab ac3c
00000010: 3798 b33b 8068 f4bc b3a2 aaba 3739 823c
-0.003587978 -0.021163225 0.017712433 0.021077966 0.005480792 -0.029834986 -0.0013018459 0.015896423

0.1.running_var f4 [8]
00000000: 5563 473d d23f 3e3f 52de 093f a240 453f
00000010: fa24 8b3d 4bc1 c33f 397e 903d 2b66 e13e
0.048678715 0.7431613 0.5385486 0.77051747 0.06794162 1.5293363 0.07055325 0.4402326

1.0.weight f4 [16, 8, 3, 3]
00000000: 92ba 7d3d ff83 3ebd 01bb cc3d 9866 d53b
00000010: 9be1 46bd 71d6 99bb d089 f4bd a957 7a3d
00000020: 39b3 863d a32a 7dbd 02a7 b43d b3af b33d
00000030: 3cfe 983d 2354 aebd 505f 5e3d 08b8 9fbd
00000040: 803d 00be 14cb f1bd d65d 57ba 3116 4f3d
00000050: dbb7 bd3d 0a98 bfbd 5fac 9f3d d1b2 703d
00000060: 48b8 863d f0d0 85bc 6b4a c13c c534 d4bd
00000070: dff8 103d cdd7 0abd 3dd2 993c ef8b a9bd
00000080: 5934 17bd d6a4 ccbd 085c 49bd 94e4 fc3d
00000090: d83b 3d3d bcf7 c93d eba5 dcbc c5e9 d63d
000000a0: e181 97bd 0a20 9c3c 5329 e8bc cea8 0abd
000000b0: eb35 c33d b3e3 b5bd ccde 653d 12f7 913d
000000c0: c860 73bd 971a 7cbc fee2 2b3d 4b01 01be
000000d0: a4ff b4bd 6d2b b83d 706c 9fbd 063b 213d
000000e0: 6627 b03d f63d 503d 9ce9 25bd be7e 823c
000000f0: d27b b73d cf78 973d 979a 933d 2249 b73d
00000100: c476 3fbd c676 f5b8 9997 9d3d 23a7 853c
00000110: 9963 bd3d 280e 0b3d 08df e03d eacb 04bd
00000120: 0a59 9e3d de04 6dbd 0dba c43c a41e 4cbd
00000130: fe90 023d e25e 67bb 1e0d 523d 38b6 ac3d
00000140: 185b 163b b56b 613a 33af 093d 5d5c 4abd
00000150: 4f30 933d 4683 cb3b d856 6f3d 1250 ed3d
00000160: be40 a1bb 3d90 c63d fd59 94bd c440 353d
00000170: ee4e ec3c fad4 c53d ce88 c83d e42b bfbd
00000180: b119 babd 2144 b13c d566 56bd 36b9 a33d
00000190: 18b5 cdbd 1a5e a13d c3c5 983d d34c f1bd
000001a0: 800d c5bd f4c4 bbbc 50dc aebd 403f d73d
000001b0: 0965 89bc 0c87 2ebc d331 d9bd 94b8 e33d
000001c0: 76ef f43c 53b8 233d 57fa 7a3d 853b e23c
000001d0: 5232 4bbd 5eae 84bd ed1f 93bc 33fb 563b
000001e0: e25d df3d 7b8e 113d 624c ee3d f88e 4e3d
000001f0: 6204 963c 2dad 8c3d de25 93bd 334a 813d
00000200: 3efa 033d d925 ccbd 7a5e c83d 3135 74bd
00000210: 290f e43d 4e80 c7bd 7d02 cabc 6a89 a0bc
00000220: 8c45 adbd 65ee a6bd da4c 30bd f901 15bd
00000230: 2cb0 42bc d243 e53d eac0 5fbd 1073 f33c
00000240: c150 7e3d b150 3dbd c586 5dbd eb39 82bd
00000250: b3fb d23c e30e 0a3c 1e6b de3d 6065 e73b
00000260: f54d 63bd 0de8 e6bd b326 fe3c b0ec 8ebb
00000270: c564 eb3d 02f3 e4bc c1ef e8bc ac8f 70bd
00000280: f6d5 7e3d f773 b03d 99ac 8a3d 2281 a1bc
00000290: 812f 80bb b9aa d23d 1a10 60bd 1031 a6bd
000002a0: cf34 593d 0a91 efbd 8a07 96bc 661c 5a3c
000002b0: 942e 84bc 40be ad3c 514a 3ebb c01f a73d
000002c0: f72b 03be 216e 96bd 3501 d9bc a583 b2bd
000002d0: e1e2 2ebd 0187 26bd 3512 77bc 91ac 02bd
000002e0: 6c62 21bd 9886 adbd 781a b13d bedc 7f3d
000002f0: fe1f 75bb 3d7f 91bd 1aa2 bc3d 82e5 3d3d
00000300: bda0 863d dd1b db3b 4379 c3bc f8c5 abbc
00000310: 4615 b23d 634c 413d 051d 5a3c 4a66 e13c
00000320: 7276 ae3d 2152 923d d400 cfbc c37b ac3d
00000330: e8e5 823d f068 9e3d 6cee 95bd 8521 ba3d
00000340: 9d8c 99bd cc4f 233d f14b a93d 194b c2bd
00000350: 76ac 8dbd cc90 013d c488 06bc b0b0 c73d
00000360: 1ef1 b6bd 1577 75bc 3f4e a4bd 9d6f e5bd
00000370: 011d 53bd 855a 383d 2d72 a8bd 2bea e3bb
00000380: 5071 fdbd ee99 153d 0523 cf3d 5a7e 8c3d
00000390: b9d2 89bd 97f9 573d fe10 b8bd 882a 89bc
000003a0: 9607 babd efdc 09bb 878a 623d d006 b23d
000003b0: b7fd fd3c cac5 2ebd bf47 a8bd 0a26 e33d
000003c0: 0f07 5c3d 3f41 dcbd b1dc 4f3d 0f65 9abd
000003d0: 842d bcbd 25e9 1dbd 17d2 c8bd cb9f 98bc
000003e0: 5682 7dbd f192 9ebd 5c78 4e3c fba2 ecbc
000003f0: 8400 963d f27d 813d 4a97 abbc d225 993c
0.061945505 -0.0465126 0.09996606 0.0065124743 -0.048554998 -0.004694753 -0.11940348 0.061118755
0.06577153 -0.06180824 0.08820917 0.08773746 0.07470366 -0.085121416 0.054290116 -0.07798773
-0.1252346 -0.11806312 -0.0008215582 0.050558273 0.09263583 -0.09355171 0.07796549 0.058764283
0.065781176 -0.01633498 0.023595056 -0.103616275 0.035393592 -0.03389721 0.018777007 -0.08278643
-0.036915157 -0.099923775 -0.049160033 0.12348285 0.04619965 0.09861705 -0.026934585 0.10493807
-0.07397819 0.019058246 -0.028340017 -0.03385239 0.095317684 -0.08881321 0.05612068 0.07127203
-0.05941847 -0.015387199 0.041964523 -0.1259815 -0.08837822 0.08992658 -0.07784355 0.03936293
0.08601265 0.05084034 -0.04050599 0.015929576 0.08959164 0.07396089 0.0720722 0.08949496
-0.046744123 -0.00011704634 0.076949306 0.016315049 0.09247512 0.033949047 0.1098004 -0.03242103
0.077318266 -0.05786597 0.024014497 -0.04983391 0.031876557 -0.0035304357 0.05128204 0.08433193
0.002294248 0.00085991184 0.03361435 -0.04940449 0.071869485 0.0062107174 0.05843243 0.11587538
-0.004921048 0.0969548 -0.072437264 0.04425122 0.02884623 0.09659763 0.097917184 -0.09334543
-0.090869315 0.021638932 -0.052344162 0.079943106 -0.100443065 0.078792766 0.07459595 -0.11782231
-0.096217155 -0.022921063 -0.08538115 0.10510111 -0.01677181 -0.010652315 -0.10605206 0.1111919
0.02989934 0.039970707 0.0612739 0.027616272 -0.049608536 -0.064785704 -0.01795956 0.0032803535
0.109065786 0.03553627 0.116356626 0.050429314 0.018312637 0.06868968 -0.07184957 0.063129805
0.03222107 -0.09968156 0.09783645 -0.05962104 0.11135704 -0.09741269 -0.02465939 -0.019596774
-0.08460531 -0.08150939 -0.04304204 -0.036378834 -0.011882823 0.11194576 -0.054627337 0.029717952
0.06208873 -0.04621953 -0.054083604 -0.06358703 0.025754785 0.008426401 0.10860275 0.0070616454
-0.055494267 -0.11274729 0.031024313 -0.0043617114 0.1149383 -0.027947906 -0.028434636 -0.058730766
0.062215768 0.086158685 0.06771202 -0.019714896 -0.003911913 0.10286469 -0.054702856 -0.08114827
0.053028878 -0.11697586 -0.018314142 0.013312435 -0.016135491 0.021208882 -0.0029035995 0.08160353
-0.1280974 -0.07345224 -0.026489833 -0.087165155 -0.042696837 -0.040656094 -0.0150800245 -0.031902853
-0.039400503 -0.08472937 0.08647627 0.062466376 -0.0037403102 -0.07104347 0.09210606 0.046361454
0.06573627 0.006686671 -0.023861533 -0.020968422 0.08695464 0.04719199 0.013312583 0.027514596
0.085186854 0.07144571 -0.02526895 0.08422043 0.063915074 0.07734859 -0.07320866 0.090884246
-0.07497523 0.039871022 0.08266438 -0.0948698 -0.0691766 0.03163223 -0.008211318 0.09750497
-0.08932708 -0.014982005 -0.08022737 -0.11202929 -0.051541332 0.0450082 -0.08224902 -0.006955405
-0.12375128 0.036523752 0.10114101 0.06860037 -0.06729645 0.05272826 -0.08987616 -0.016743913
-0.09083478 -0.0021036228 0.05530789 0.08692706 0.03100477 -0.042669095 -0.082168095 0.1109124
0.05371767 -0.10754632 0.050747577 -0.07538807 -0.09188369 -0.038552422 -0.098056965 -0.018630883
-0.061891876 -0.077428706 0.012601938 -0.028886309 0.07324317 0.0632285 -0.020946164 0.018694792

1.1.weight f4 [16]
00000000: 95a4 7d3f d619 813f 8b6d 7f3f 238b 803f
00000010: b9ce 803f ce33 803f 1b24 813f 6aa5 813f
00000020: 5c9b 803f 654a 803f 2fb3 7f3f b2bb 7d3f
00000030: ac86 7d3f 0ce7 7f3f 0a54 7f3f 5441 7d3f
0.9907926 1.008601 0.99776524 1.0042461 1.0063087 1.001581 1.0089144 1.0128605
1.0047412 1.0022703 0.9988279 0.99114525 0.9903362 0.99961925 0.9973761 0.9892781

1.1.bias f4 [16]
00000000: d1aa f0ba 6cbc 423c fd83 da3b 4bd3 7c3b
00000010: 02da b73b 37f0 593c c5b8 303c bfab 333c
00000020: 5d0f 0b3c 18af b73b 12eb 8f3b 70a2 e7bb
00000030: 7b89 15bc 6717 d23b 0eb1 083c 68f9 9b3b
-0.0018361454 0.011885744 0.0066685663 0.003857809 0.0056107054 0.013301901 0.01078624 0.01096624
0.00848755 0.0056055896 0.0043920362 -0.0070689246 -0.009127016 0.006411481 0.008342994 0.004759956

1.1.running_mean f4 [16]
00000000: 88fc 823e c383 6e3e e07a c63d 550e 50be
00000010: b241 6bbe d9e0 fb3d dbc3 cabe 5a96 7abe
00000020: 2c78 50be d0cc 3bbe 932c 853e 2bd4 7f3e
00000030: 0514 0bbe 4c48 7a3e 76b1 333e 9558 333e
0.2558329 0.2329245 0.09691405 -0.20317967 -0.2297428 0.12298746 -0.3960255 -0.24471417
-0.20358342 -0.18339849 0.2601057 0.2498328 -0.13581856 0.24441642 0.17548165 0.1751426

1.1.running_var f4 [16]
00000000: 025a fa3d 67fa 8a3e 18a8 1c3e 48fd 3d3e
00000010: 26ee 8e3e a88d aa3c 9518 2b3e e050 fb3d
00000020: 43f5 ab3e d238 ed3d 2929 c73d 7c83 0c3d
00000030: e45b 6b3d 88bc 0a3e 972e f93d 8da2 213d
0.12224199 0.27144167 0.15298498 0.1855365 0.27916068 0.0208195 0.16708596 0.12271285
0.33585557 0.11583103 0.097246476 0.03430508 0.05746068 0.13548481 0.121670894 0.03946166

2.0.weight f4 [32, 16, 3, 3]
00000000: 0514 0b3c 7f70 5cbd dc76 fb3c 02d5 91bd
00000010: 2ae4 4f38 7cf5 9ebd 7d14 183d 7c5b 7abd
00000020: ed48 5dbd f394 0fbd c0f1 833d 5eb2 84bd
00000030: 301b afbc 7448 8bbc 744b b0bd 8db9 67bd
00000040: 54e4 7e3d 6fb4 833d 5c53 9ebd c0be 42bd
00000050: 8863 96bc 59bc a13c 6daf f33c b516 03bd
00000060: f037 7dbb 70fc 81bd 4185 9cbd dc28 d53c
00000070: 3070 903d 9ac8 a73b 6ca3 80bc b79e 73bb
00000080: cd95 663d ceb6 973d 7c26 73bd 46b7 30bd
00000090: 80e4 8b3d 8b69 6d3d 3f0c 34bd e643 d5bc
000000a0: 67d8 5fbc d09d 9fbd 1a50 44bd ecc3 8a3d
000000b0: b1fb 3b3d 021e 55bd 7ee4 a1bd 497e 4bbd
000000c0: 5bd9 f93c 9649 63bb 82fa 403c 7584 c1bc
000000d0: ff67 4e3d f771 033c 3b9b 83bd 2921 463d
000000e0: 56f8 393d 4c86 92bc 1e0d aebc 0a9c 523d
000000f0: fb8c 1d3c 4187 d1bb 5505 50bd f70f babc
00000100: ad33 323c d93d 833d 4471 833d c38d 913d
00000110: 84d0 8fbd 227a 6ebd e5a6 923d 162c 0abd
00000120: 7c8e 8bbd 80b4 52bd 0ffb 2b3d 9395 95bd
00000130: 4b43 14bd ce2f 85bd 3478 703d e4f1 8e3d
00000140: 8f26 6d3d a74b 293d 4004 5a3d d6e5 5e3d
00000150: 1409 65bd 87b0 5c3d 5960 95bd 774f 83bd
00000160: 9559 84bc 510b a53d 2d7d b83c 3d89 d9bc
00000170: 8be1 54bc b463 9d3c 5b11 923c 239b 9b3d
00000180: 9c0d 87bd dd42 96bd 9983 4ebd 5619 2bbd
00000190: 0dd6 9abd 97da 93bc 6a38 d9bb 987c 65bc
000001a0: 81cc 1e3d 89f4 8d3d 8e6d aabc a7aa 043d
000001b0: 7ad6 8dbd 1827 a7bd 2fb2 533a d7d4 893b
000001c0: 2528 0abd d66f 983d 79d7 2c3d 128c 283d
000001d0: 3384 d13c 4d0e 70bd a758 d03c 7e7f 1bbd
000001e0: 8ff9 df3c 8dcc 033c 7498 c33c c52f 51bd
000001f0: 72dd 453d 4a48 adbd cfba 9c3c 0e52 f63c
00000200: 4461 1a3d b66a 5abd 78d4 1f3d 2d23 96bd
00000210: 302b 473d 0104 80bd e7a0 173d 6306 533c
00000220: eda8 9b3d 7de0 7b3c ae97 1a3d 03a3 bf3c
00000230: f653 a2bd 6f17 d43c a5f8 1d3d 07ec 1c3d
00000240: cd71 a5bc 3c5d 723d 1f8f 82bd 7a18 16bd
00000250: b39e 873d 9476 013d 0e9c 893c 6501 24bd
00000260: 0249 7b3d af4f fbbc dd17 fcbc 1899 9d3b
00000270: 56c8 803d 77a4 d9ba 9005 193c 1b42 923d
00000280: 656a 81bd b8be 9ebd c0ee 313d 40f5 02bd
00000290: 5f7e 65bd 964a 70bd 4136 5ebd d78c c73c
000002a0: 119a 963b 808e 6a3d 534d 433d ca12 43bd
000002b0: 783b 75bd 27dc 31bd c0ec 483d 397f b9bb
000002c0: 8819 903d 2df3 383d ddd8 31bd 50ce a1bd
000002d0: 88b0 eaba a68b 883d 5933 f63c b3a8 9d3d
000002e0: 55ae 113d 8f27 763d b1af 5bbc a709 8fbd
000002f0: 3269 acbb e3aa 09bd a0ea 10bc 344d d8bc
00000300: b0c1 843b c712 bfbc 8265 aabd f654 423d
00000310: 2b5f a5bd 9836 dabc 1da4 873d 630d 94bd
00000320: 26c9 cfbc f391 633d 414c 133d 8410 213d
00000330: 2034 8fbd 9d22 8a3d dd45 93bc d4c6 9b3c
00000340: 2e24 963c 1edf 2bbd cae0 ae3d 9c5b 403d
00000350: 1712 14bc e344 373d 8c0f 7abd 9168 54b8
00000360: 5bcd 8b3d b803 953d abdc 303a 1267 ef3c
00000370: a05d 9a3c 48e9 bbbd 7cd7 75bd c257 873d
00000380: 6a7a 30bd cd79 3ebd 677e cd3c 370e a8bc
00000390: 86e1 2bbc 73b5 2f3d 2292 ffbc 3374 d93c
000003a0: c9a6 39bd 6ef7 853d f91d 61bd f786 d83c
000003b0: c4e0 6c3d 6fbc 61bc 67bd 093c 42c6 c23c
000003c0: cbca debc e027 8c3d aa92 923d 36c3 93bc
000003d0: e259 d3bc bc19 32bd 992d 8f3d 90cf b3bd
000003e0: 4597 293d 1501 193d 54b4 e53c 3bdf 553c
000003f0: d58e e0bb f01b 84bd 5fc7 333d 3dbe ddbc
0.00848866 -0.053818222 0.030696325 -0.07120706 4.956514e-05 -0.07761666 0.037128914 -0.061122403
-0.054024626 -0.03505416 0.064425945 -0.06479333 -0.021375269 -0.017002322 -0.086081415 -0.05657344
0.06222947 0.06430899 -0.07730743 -0.047545195 -0.018358007 0.019743131 0.029746735 -0.032004077
-0.0038638078 -0.06346977 -0.07642604 0.02602046 0.07052648 0.005120349 -0.015702926 -0.003717346
0.056295205 0.07407914 -0.059362873 -0.043143533 0.06830692 0.05796198 -0.04395699 -0.026033353
-0.013662434 -0.07793772 -0.047927953 0.067756504 0.04589433 -0.05203057 -0.079049096 -0.04968098
0.030499151 -0.0034681312 0.011778476 -0.02362273 0.050392147 0.008022777 -0.06426092 0.048371468
0.045402847 -0.017886303 -0.02124649 0.05141834 0.009616132 -0.0063942974 -0.050786335 -0.02271269
0.010876578 0.06408281 0.06418088 0.07107117 -0.07022193 -0.058221944 0.07160739 -0.03373345
-0.06814286 -0.05144167 0.041987475 -0.0730392 -0.036196988 -0.06503259 0.058708385 0.06979731
0.0578981 0.041331913 0.05322671 0.054418407 -0.05591686 0.053879287 -0.072937675 -0.06411641
-0.016155997 0.08058799 0.022520626 -0.026554698 -0.012993227 0.019212581 0.017830541 0.07597949
-0.06594393 -0.07336972 -0.05041847 -0.04177221 -0.07560358 -0.018048568 -0.0066290395 -0.014006756
0.03876925 0.06931407 -0.020804193 0.03238931 -0.06925674 -0.081617534 0.00080755627 0.0042062807
-0.03372969 0.07443206 0.04219768 0.041149206 0.025575733 -0.05860739 0.025432898 -0.037963383
0.027340678 0.008044374 0.023876406 -0.051070947 0.04830689 -0.08461054 0.019132046 0.030068424
0.037690416 -0.053324424 0.039020985 -0.07330928 0.04862517 -0.06250764 0.037018683 0.012879941
0.076005794 0.015373346 0.03774231 0.02339316 -0.079261705 0.02589008 0.038567204 0.03831103
-0.020195866 0.059170946 -0.063749544 -0.036644436 0.06622066 0.031607226 0.016798045 -0.040040392
0.061348923 -0.030677645 -0.030773098 0.00480951 0.06288211 -0.00166048 0.009339705 0.07141515
-0.06319121 -0.077512205 0.04344058 -0.03197217 -0.05602872 -0.05866488 -0.05425096 0.02435915
0.004596003 0.057264805 0.047681164 -0.04762534 -0.059871167 -0.043422844 0.049053907 -0.005660918
0.0703612 0.045153785 -0.043419708 -0.07900679 -0.0017905394 0.06667261 0.030053781 0.076981924
0.035566647 0.06009632 -0.013408587 -0.06984263 -0.0052615637 -0.033610236 -0.008845001 -0.026404
0.0040514097 -0.023324383 -0.08320142 0.047444306 -0.080747925 -0.02663736 0.06623099 -0.07229116
-0.02536447 0.05555911 0.035961393 0.03932239 -0.06992364 0.06744883 -0.01797765 0.019015707
0.018327799 -0.041960828 0.08538969 0.046962366 -0.009037516 0.04474343 -0.061049983 -5.0642124e-05
0.06826278 0.072761 0.0006746749 0.029223952 0.018843472 -0.09175354 -0.060019955 0.06608535
-0.043085493 -0.046502877 0.025084687 -0.02051459 -0.010490781 0.042897653 -0.031197611 0.026544666
-0.045325074 0.06541334 -0.054960225 0.026431544 0.05783154 -0.013777836 0.008406973 0.023776177
-0.027196309 0.06843543 0.0715688 -0.01803742 -0.025799695 -0.043481573 0.06991119 -0.08779824
0.041404027 0.037354548 0.028040089 0.013053711 -0.0068529644 -0.06450641 0.043891307 -0.027068252

2.1.weight f4 [32]
00000000: 5418 803f 4103 7d3f 33ec 7f3f 6c83 7e3f
00000010: 400b 7f3f 5e2b 803f bb93 7d3f 5844 803f
00000020: 1488 803f 7f86 7e3f 39d0 7f3f 2592 7e3f
00000030: ab0b 7e3f 9b57 803f 11ac 803f efff 7d3f
00000040: 2582 803f 8c54 803f 96cc 7c3f 4b79 7e3f
00000050: c1e6 803f b3b5 803f 7026 7e3f f7d3 803f
00000060: 57fb 803f 352d 813f 2211 803f 5dcc 7d3f
00000070: 2ca3 803f 6a55 803f 6fb1 7d3f e341 813f
1.0007424 0.9883309 0.99969786 0.99419284 0.9962654 1.0013235 0.99053544 1.0020857
1.0041528 0.99423975 0.999271 0.9944175 0.99236554 1.0026735 1.005251 0.9921865
1.0039717 1.0025802 0.98749673 0.9940383 1.007042 1.005545 0.992774 1.0064687
1.0076703 1.0091921 1.0005229 0.9913996 1.0049796 1.0026066 0.9909887 1.0098232

2.1.bias f4 [32]
00000000: dc24 283c aa8b 1bbc 17cb 8db9 6c76 c83a
00000010: f001 b13b cc9a f03b 251f 41bc 6834 a03b
00000020: a6a6 4b3a ae39 223c f597 e83a 3f25 79bb
00000030: 53ff 27bc dbc9 c9ba dfd0 8239 cd29 6f3b
00000040: a50d 0d3c 8321 073c a8ba 07bc 97a7 2a3a
00000050: 039b ad3b 57ff d63b 9e3e c5bb bb5f fd3b
00000060: b0c8 a93b 88e9 fe3b c449 d13b ae37 703b
00000070: a78e 3d3c fef0 f03b e255 01bc 76e2 d83b
0.010262694 -0.009493748 -0.0002704493 0.0015294082 0.0054018423 0.007342672 -0.011787211 0.00488906
0.0007768668 0.009901447 0.0017745482 -0.0038016585 -0.010253745 -0.0015395241 0.00024951153 0.003649342
0.00860921 0.008247736 -0.008284248 0.0006509958 0.00529802 0.0065612006 -0.0060194274 0.007732359
0.0051813945 0.007779304 0.0063869674 0.0036654281 0.0115696555 0.0073529473 -0.007894011 0.006618793

2.1.running_mean f4 [32]
00000000: 21fc 5cbe 16d2 953b f184 7cbc b02f 2a3e
00000010: 83b2 7a3e 7821 c13b e8e7 10be 4ce6 69bd
00000020: b6a0 32bd ee84 4f3e 419e ed3d 72e1 ebbe
00000030: 23a5 18be f6b7 2cbe 73b8 19be 838f 9dbe
00000040: da79 7b3e 8ec2 f43d 505b bd3b f351 c63e
00000050: 1539 92bc 6a29 71bd b320 c7bc 6486 4c3e
00000060: af8e 55bd 835b bdbe 068c d6bd 0b0a 133e
00000070: 2542 533d 4e96 df3d 82c9 3b3d aa8a c13d
-0.21580555 0.0045721633 -0.015412555 0.16619754 0.2448216 0.0058938824 -0.14150965 -0.057104394
-0.043610297 0.20265552 0.1160245 -0.4607044 -0.14906745 -0.1686705 -0.15011768 -0.30773553
0.24558201 0.11951171 0.0057787076 0.38734397 -0.017849484 -0.058877386 -0.024307584 0.19973141
-0.052138027 -0.3698388 -0.10475926 0.143593 0.051576752 0.1091734 0.04584647 0.09450276

2.1.running_var f4 [32]
00000000: 6107 f13d ac45 8d3d 41df af3e d44c 133f
00000010: c0b0 a83e cdaa 993e 043e 383e 087b 903e
00000020: 7fde ac3d cd66 2b3e 9ef4 e33d 8ee3 263e
00000030: 7eeb 983e 4dda d83e 8570 ea3e 5801 ea3d
00000040: a0c3 1a3e c2b5 e43d eb28 833d 8a7e 0a3e
00000050: d8b5 473e 0c6e 8e3e e164 483e b7ed 9f3e
00000060: a449 2e3e 6071 b93e 48ba 6a3d acfa 193e
00000070: fac6 103e 8796 f03d 0850 7e3e 8bec 5f3e
0.117689855 0.068980545 0.34350017 0.57539105 0.3294735 0.30013123 0.17992407 0.28218865
0.08440875 0.16738434 0.111306414 0.16297743 0.29867166 0.4235405 0.4578897 0.114260375
0.15113688 0.1116748 0.06404289 0.13524833 0.19502962 0.27818334 0.19569732 0.3123605
0.17020279 0.3621931 0.057306558 0.1503703 0.14138404 0.11747461 0.24835217 0.21867578

3.0.weight f4 [8, 32, 3, 3]
00000000: 3248 3d3d e548 43bd 650c 24bd 3ee3 953c
00000010: 843d 71b9 217f 073b 19e5 123d 6654 51bd
00000020: 0eb1 79bd 5118 833c 3411 b53c ebf8 3f3d
00000030: 7cdb 2f3d 41d3 c83c f164 4bbd 048f 8abc
00000040: 67c6 3e3d 23e1 28bd f8a7 4bbd 3de6 853c
00000050: b1e2 6cbd 17ac 4b3d 0898 4abc c58d 81bd
00000060: 82d9 4dbd fd01 06bd c7c7 43bb a642 363d
00000070: bf89 e7bc 23cb 4c3d 3624 9cbc 383c 183d
00000080: 23c8 bc3c fdcf 0ebd 92db 6b3c 978c 41bd
00000090: 9a74 223d 56fa 013d b725 2a3d 5386 47bc
000000a0: 301a 1b3d 5591 6ebc c535 933b 29d6 57bd
000000b0: e0c7 763d 72df 583d 975e 3abd 7b61 523d
000000c0: 5c13 75bc 04a6 343c 955c 5ebd c4c8 13bb
000000d0: b757 203d 7974 db3c 735b 56bb 2075 243d
000000e0: 4ae5 2bbd 592b 313d b2cb ff3c a3f0 413d
000000f0: 543c aa3c df57 86bd 5789 183c 6aad d83c
00000100: 1dce d83c d12d bb3c d543 21bb e642 15bc
00000110: 0103 853b 5ed2 a83c 641a 413d 542a 0c3d
00000120: 6cfb f3bc 26a0 213c fcbe 033c 401e 6fbd
00000130: a5ab 613c 7cb1 133c 1ff3 b93c 5982 d33c
00000140: fdf9 3abd 4bc4 0abc 3b0a 763c 0a04 72bd
00000150: b8a6 08bb 5dcd 593d b3b5 e93c 6cf8 453d
00000160: 663e e23c 3e82 ab3c 72a5 323a 9d35 2bbd
00000170: fe99 debc 242d b2bc 2a07 4fbd 4340 3abc
00000180: 5b02 0f3d 7fbf 09bd af1d 0ebd b66d 69bd
00000190: 2b8b 453d 36c3 82ba 510d 00bd 0dfb d1bb
000001a0: d238 b83c dd19 0c3d 236e e4bc aceb 7dbd
000001b0: a89b 8a3c b32f 0f3d 744c 3fbd 402c 463d
000001c0: bbd5 59bd f769 7bbd cb3d 123d 9a71 153d
000001d0: 0545 9c3c 95b0 123d 3804 36bd da05 c93c
000001e0: 9738 8ebc 2808 52bd 73d9 5fbc 2966 2c3d
000001f0: 5d87 1d3d 3236 ae3c 1314 3e3d 06fd 02bd
00000200: 544f 85bc ba82 283d fea9 a8bc 4738 98bb
00000210: fd3f b0bc d5d0 48bd f314 10bd 3edd f83c
00000220: 8ab2 6ebd 1f22 c83c e244 fc3c 29b3 813d
00000230: 1e94 a4bb 0e74 1a3d d933 dfbc bf3c c6bc
00000240: f343 59bd 8b49 1a3d c9b9 423d 3751 163d
00000250: 5477 6fbb e6c1 48bd 3875 60bd 048f 33bd
00000260: fe94 553d 6d19 783d 1f07 d2bc b319 53bb
00000270: 563e 313c 7ce9 c939 a5e6 793d 76ac 8cbc
00000280: 5c77 013d 6a38 1e3d 7c80 64bd 3203 d63c
00000290: 46c1 903c 4ceb 2cbd 6979 b63c 8b8b 2a3d
000002a0: ae2c 8ab9 866d aabc 8ee2 2f3c 7d3e 153c
000002b0: a7a0 b53c c785 9cbb e40a aaba 7c79 44bd
000002c0: 8370 0dbd aa44 b8bc d42a db3c 1e30 043d
000002d0: 09f8 e7bc 906e 1c3d 2bde 7ebc 38ad 9c3c
000002e0: 75aa 86bc 69fb 18bd a1c6 a7bc 7d60 dc3c
000002f0: 7566 25bc d739 7d3c b37b 323b 7f3f fdbc
00000300: 51e8 c6ba 62b0 6c3d 4be3 213d 645a 1b3d
00000310: bacc d23c 72bd 583d a058 113b fd97 7ebd
00000320: a2d4 0e3d 5984 b3bc 2fa6 a43c ad6e 163d
00000330: 1b29 29bd 3767 f739 235e b03c d3ca a93b
00000340: 4063 2bbd d027 42bd a8a2 ad3c 3745 d4bc
00000350: 3c4a bcba 7a73 c73c 65b4 2e3d 3f9f f5bb
00000360: c90e de3c f072 343d eecf eebc 4c37 433d
00000370: b232 28bd a054 273c a8f6 a2ba 657d 013d
00000380: 69fe 18bd 6374 1fbd 3f50 db3b 2cb0 52bd
00000390: 482b 383d 194b 3e3c fc86 863d 99c9 4c3d
000003a0: deac cf3c 28c7 b33c d686 b63c 0d93 74ba
000003b0: 7ca5 873c c2a6 d3bc 3be2 4e3d 5fd0 743c
000003c0: 5c32 26bd 9365 2abd b822 ecbb 76bd fd3c
000003d0: 64f9 71bd 1c4c c93c fe0a 503d aed1 e3bc
000003e0: d5d2 1f3d 6e78 603d 3c49 0dbd c7d4 113d
000003f0: e5d2 e53c f406 dcbc 0c70 e33b 01c7 0e3d
0.04621143 -0.04767694 -0.040050883 0.018296834 -0.00023006467 0.002067514 0.035863016 -0.05110588
-0.060959868 0.016002806 0.02210293 0.046868246 0.042933926 0.024514796 -0.049656812 -0.016913898
0.04657593 -0.041230332 -0.049720734 0.016345138 -0.057833377 0.049724665 -0.012365349 -0.063258685
-0.05025626 -0.03271674 -0.0029873715 0.044497155 -0.028263925 0.049998414 -0.019060235 0.037166804
0.023044651 -0.03486632 0.014395611 -0.047253218 0.03966198 0.03173288 0.041539874 -0.0121780215
0.03786677 -0.014561017 0.004492494 -0.052694473 0.06024921 0.05294747 -0.045500364 0.051362496
-0.014958229 0.011025909 -0.05428751 -0.0022550086 0.03914615 0.026788937 -0.0032708317 0.04015076
-0.041966714 0.04325423 0.03122506 0.04734863 0.02078072 -0.06559729 0.009310088 0.026449878
0.02646547 0.022848995 -0.0024607081 -0.009110188 0.004059196 0.020608123 0.04714431 0.034220055
-0.029782973 0.0098648425 0.00804114 -0.058378458 0.013773833 0.009014484 0.022698937 0.02581899
-0.045648564 -0.008469651 0.015017088 -0.059085883 -0.0020851325 0.053174365 0.028529024 0.048332617
0.027617645 0.020936128 0.00068148144 -0.041799176 -0.027173039 -0.02175004 -0.05054394 -0.01136786
0.034914356 -0.03362989 -0.034696277 -0.056989394 0.048228424 -0.000997639 -0.0312627 -0.0064081014
0.022488032 0.034204353 -0.027884549 -0.061992332 0.016919926 0.0349576 -0.04670377 0.048382044
-0.053182345 -0.061380353 0.03570346 0.036485292 0.01907588 0.035812933 -0.044437617 0.024538923
-0.017360969 -0.05127731 -0.013662684 0.042089615 0.03845917 0.021266077 0.046405863 -0.031979583
-0.016273178 0.041140296 -0.020588871 -0.0046453807 -0.021514887 -0.049027283 -0.03517623 0.030378934
-0.058275737 0.024430333 0.030794565 0.06333 -0.0050225398 0.037708335 -0.027246403 -0.024198888
-0.053043317 0.037667792 0.04754046 0.036698546 -0.003653963 -0.04901304 -0.05479929 -0.043837562
0.052144043 0.060571123 -0.025638161 -0.0032211363 0.010818085 0.00038511667 0.061010975 -0.01717208
0.03160797 0.03862802 -0.055786595 0.02612457 0.017670285 -0.042216584 0.02227469 0.041636985
-0.000263547 -0.020804178 0.010735167 0.009109137 0.022171332 -0.0047766897 -0.0012973216 -0.04796742
-0.034531128 -0.02249368 0.02675382 0.03227245 -0.028316515 0.038191378 -0.015555899 0.019125566
-0.016438702 -0.03734914 -0.020480456 0.026901478 -0.010095228 0.015455685 0.0027234375 -0.030914066
-0.0015175437 0.0577854 0.039523404 0.037928 0.025732387 0.052915044 0.0022178069 -0.062156666
0.03487075 -0.021913694 0.020098774 0.036726642 -0.041298967 0.00047188412 0.021529263 0.0051816492
-0.0418427 -0.04740125 0.021195725 -0.02591191 -0.0014365385 0.024347056 0.042652506 -0.0074957903
0.02710666 0.044054925 -0.029151883 0.047660157 -0.04106397 0.010213047 -0.0012433128 0.031613726
-0.037352 -0.038929354 0.0066929157 -0.05143754 0.04496315 0.011614584 0.06568715 0.049996946
0.025350984 0.021945551 0.022281092 -0.00093297736 0.016558401 -0.025836352 0.05050872 0.014942258
-0.04057537 -0.041600775 -0.0072062872 0.030974131 -0.059075728 0.024572425 0.050791733 -0.027809944
0.039019424 0.05480235 -0.03449367 0.03560331 0.028054664 -0.026858784 0.0069408473 0.034857754

3.1.weight f4 [8]
00000000: 8ee9 823f 81fa 813f eea7 833f 27d4 823f
00000010: 2720 823f eef5 813f 5491 813f 141b 823f
1.0227525 1.0154573 1.0285623 1.0220994 1.0166062 1.0153177 1.0122476 1.0164514

3.1.bias f4 [8]
00000000: 5f42 ad3c ac1c 2a3c 7b79 d63c ba6a 9f3c
00000010: b359 693c 4790 4f3c 323b 043c b5cb 403c
0.021149812 0.0103828125 0.026180973 0.01946007 0.014242577 0.012668676 0.008070754 0.011767318

3.1.running_mean f4 [8]
00000000: 28b6 333e 0a7e 28be e095 7e3e 5a10 fb3c
00000010: 9b56 183f 0cd7 0c3f 3e21 f93e d1c8 993e
0.17549956 -0.1645433 0.2486186 0.030647445 0.5950715 0.55015635 0.48658174 0.30036023

3.1.running_var f4 [8]
00000000: 51ad d03e 0611 6f3e 2982 013f d49b dc3e
00000010: 08c2 4a3e ed0d a53e cc9b c43e c13e 993e
0.4075723 0.23346338 0.50589234 0.43087637 0.1980058 0.32237187 0.38400114 0.2993069

4.0.weight f4 [2, 8, 3, 3]
00000000: 758f dfbb aa92 dcbb b154 903c 80c1 aebc
00000010: f43f f4bc d3a9 02be bada 9c3c efd5 c1bd
00000020: 4162 9abd 1c2d c93d 449f a839 c63b 98bc
00000030: ee2e b8bd c552 f63d d722 db3d a34d 013e
00000040: 66d4 94bd a81e b8bc da7b adbc 6630 8abd
00000050: 6f0c 97bd 8073 493c 39d4 9e3d 8066 c4bd
00000060: 2a11 92bb 6087 b23d ba52 313d a189 e8bd
00000070: 3769 5abd fbd2 cfb9 c831 783d 0a59 a8bc
00000080: bacf bcbd 34ee bfbd d9e7 d2bd ed68 c5bd
00000090: 6ae6 b83d fe53 cd3d 75f8 a03d ca9d ecbc
000000a0: f9dc babd 1e73 ed3d 2ffb 9f3c 3c69 6fbb
000000b0: 7abd 793c 75f5 853d 1ece 82bd 4407 b6bd
000000c0: d607 c43d add7 e33d 2e09 a23c 7bd1 cd3d
000000d0: 8694 8b3c 7941 ab3d 565b 143d 93bd 90bd
000000e0: 031a 9ebd 6989 843d 4939 f63d f4bb 50bd
000000f0: 4809 c93d 5763 813d 697e c43d 7314 47bc
00000100: eef5 bdbd f664 863d caf2 bb3c 00e4 febb
00000110: 43d8 4bbd abcd 023e a12b f23d 40ff b9bd
00000120: e2f5 87bd ea29 2abc 3063 e23d 6ec0 f93d
00000130: b12a d43d 021d fe3d 3606 80bd 8465 663d
00000140: 02c3 2cbd e4e1 963d f7fe b2bb 1936 bf3d
00000150: 1fef 7cbd d648 76bd d54a e2bd e375 833d
00000160: 801f 763c 72c6 03be 9779 053e 17a0 d33d
00000170: e4e1 643d c5a9 a93d bc16 1dba 216b c93d
00000180: 2c0c 1abd e4a1 1f3b a4cb abbd 26d1 0c3c
00000190: fa40 b03d 717e 6c3d d211 953d a436 c7bc
000001a0: e6ed 0a3e 98fb 52bd 0431 d9ba 8961 193c
000001b0: eb69 c1bd 9d88 a1bd 03d6 d23d e70c b83d
000001c0: 52ba aabd bf3d 743d 666a 0ebd d7f2 a3bd
000001d0: 5e3f ae3c 2141 a1bd 8301 8fbd a6b0 88bd
000001e0: 2ed3 f7bd 6f9c c33d 501e 1c3d d7d0 963d
000001f0: 03ad c1bd 06b9 d9bc cd4b 283d 7f5c 973d
00000200: de34 2abd 93ef 63bd e811 2a3d bd78 0abd
00000210: 0e07 aa3d c6d7 d0bd 719e 8bbc 0093 ba3c
00000220: 1df2 9dbd 71d8 a2bd d24a e0bd fc58 893d
00000230: b22a a9bc 71f3 c6bd fed2 183d e7be f33b
-0.0068225213 -0.006731351 0.017618509 -0.021332502 -0.029815651 -0.12760095 0.019147266 -0.09464633
-0.07538272 0.09823057 0.0003216212 -0.01858319 -0.08993326 0.12027506 0.107000045 0.12627272
-0.07267074 -0.022475556 -0.021177221 -0.067475125 -0.073754184 0.012295604 0.07755322 -0.09589863
-0.0044576125 0.08717227 0.043291785 -0.11354376 -0.053322997 -0.0003963931 0.06059435 -0.02055027
-0.09219308 -0.093716055 -0.10298128 -0.09639154 0.09028323 0.10025786 0.078598894 -0.028883833
-0.091241784 0.115942225 0.019528953 -0.003653123 0.015242929 0.06540958 -0.0638697 -0.088881046
0.09571807 0.11125121 0.019779768 0.10049721 0.017038595 0.08362097 0.036219917 -0.070674084
-0.07719805 0.064715214 0.12022645 -0.050960496 0.098162234 0.06317776 0.09594423 -0.012150872
-0.09275423 0.065622255 0.02294292 -0.0077786446 -0.04976679 0.12773769 0.11824728 -0.09081888
-0.06638695 -0.01038597 0.11054075 0.12194906 0.10359705 0.124078766 -0.06251185 0.056249157
-0.04217816 0.07367304 -0.005462523 0.0933649 -0.06175148 -0.060128056 -0.11049429 0.064189695
0.015022159 -0.1286867 0.13034664 0.10333269 0.05587949 0.08284334 -0.00059924624 0.09834886
-0.037609264 0.002435797 -0.08388451 0.008594787 0.08606143 0.05773777 0.072787896 -0.024318047
0.13567314 -0.05150947 -0.0016570394 0.009361633 -0.094440304 -0.07887385 0.10294726 0.08986836
-0.08336319 0.0596292 -0.03476944 -0.080053024 0.02127045 -0.078737505 -0.0698271 -0.06674318
-0.12100826 0.09551322 0.038114846 0.07364052 -0.094568275 -0.026577484 0.041087914 0.07390689
-0.041554324 -0.055648398 0.041520983 -0.03380655 0.08302127 -0.101974055 -0.017043324 0.022775173
-0.07712195 -0.07951439 -0.10951771 0.067064255 -0.020650242 -0.097144015 0.037310593 0.007438529

4.0.bias f4 [2]
00000000: 46e3 dfbc 58ae 843d
-0.027330052 0.06478566
